model.pt (torch, 951071 bytes, 26 tensors)

lstm.weight_ih_l0 f4 [256, 6]
000000 c1 eb 16 be a1 e4 ae bd 68 58 89 bd 1f e8 d5 bd
       -0.1473837 -0.08539701 -0.06706315 -0.10444664
000010 e8 85 96 3c 06 61 44 bc 60 3c cd ba c1 c1 f6 bd
       0.018374398 -0.011986023 -0.0015658252 -0.120486744
000020 46 68 2d bc e7 4b 8f bd ad b1 8c 3d 5c ce b7 bd
       -0.010583943 -0.06996899 0.068698265 -0.08974907
000030 ec d4 cd bd 43 7e 37 3c 96 9a 64 3c 83 49 f0 3d
       -0.10050377 0.011199537 0.013952872 0.11732771
000040 77 13 83 bd da 99 d1 3c d0 ff a2 bd 4b 72 19 be
       -0.06400197 0.025586057 -0.079589486 -0.14985006
000050 60 87 3d 3d 8c 7e 08 be 46 2a ce 3d 77 c9 ab 3c
       0.04627168 -0.13329524 0.10066657 0.02097009
000060 84 b8 f1 3d 55 cb 97 bd 07 5d 21 3e a0 4c b9 bd
       0.11802772 -0.074118294 0.15758143 -0.09047818
000070 ed 3c ad bd 35 9c b6 3c de 01 0a 3d 61 25 0d be
       -0.08458886 0.022291282 0.033693187 -0.1378379
000080 f1 b3 15 39 9a fe 64 3d 1d e1 d4 bd 02 45 7e bc
       0.0001427678 0.05590687 -0.103944995 -0.015519382
000090 d3 c1 e1 bd fc 8f 99 bc 4f 3c c6 bd 13 d6 49 3c
       -0.11023297 -0.018745415 -0.09679472 0.012319106
0000a0 1a 0f 17 3d fe 8a 24 bc 1e 44 37 be 14 af 09 3d
       0.036879636 -0.010042904 -0.17897078 0.033614233
0000b0 49 91 97 3d 4f 45 8a bd 2a 63 2b bd 46 a4 94 bd
       0.07400758 -0.06751501 -0.041842617 -0.07257895
0000c0 82 06 09 be ad 1f 03 bd ed d9 26 be 99 44 42 bd
       -0.13381389 -0.03201263 -0.1629407 -0.0474287
0000d0 64 74 cf bd 7d d9 73 3d 0f 86 2e 39 fd f5 8e bd
       -0.101296216 0.059533585 0.00016643874 -0.06980512
0000e0 ca 24 15 be e8 a9 b5 bd 96 bc 0c bd 51 a1 30 3e
       -0.14564815 -0.08870298 -0.034359537 0.17249037
0000f0 48 3f 1f bd c4 21 43 3d de f6 bf 3d a5 0b 92 bd
       -0.03887871 0.047639623 0.09373258 -0.07131127
000100 ca ef db 3d fb 2a f3 3d 62 ec 58 3c 28 c9 00 be
       0.107390955 0.11873432 0.013239952 -0.12576735
000110 57 54 27 bd 6b 25 f0 3d 5d 59 19 bd e9 27 6b 3b
       -0.040851917 0.11725887 -0.03743874 0.0035881943
000120 6d 72 ff 3d de 0f b8 3d 0e 3c bf 3d d1 b7 79 bd
       0.12472997 0.089874014 0.093376264 -0.060966317
000130 01 a3 d6 3d 46 97 8c 3d 2f f6 d9 bc 42 0d f7 bb
       0.10480309 0.068647906 -0.026606647 -0.0075394223
000140 73 2d 0f 3e fc ca 12 bd 8b 86 28 3c a9 b6 cd bd
       0.13982181 -0.035838112 0.010285984 -0.10044605
000150 96 2c 98 3d 8d 4c 0a 3e ee 80 48 3d 52 4c bc bc
       0.07430379 0.13505764 0.048951082 -0.022985611
000160 e7 88 8b bd 35 03 fd 3c 4e b5 b8 bd 8f 4b b6 3d
       -0.068132214 0.030885318 -0.09018956 0.089011304
000170 93 64 0b bc 3e 9c 10 3e d1 2e 9e bd c0 4b 0d 3e
       -0.0085078655 0.14122102 -0.07723773 0.13798428
000180 83 80 26 3d db 61 10 3d 5a 69 1b bd a1 90 ce 3c
       0.040649902 0.035249572 -0.037942268 0.025215449
000190 72 b6 c9 3d c5 de cb bc 4f 40 24 3d 5a 65 85 3c
       0.09849252 -0.024886498 0.040100392 0.01628368
0001a0 2e 63 99 3d 93 0f 6f 3d 40 d8 f7 3d 3a 9e 8a 3d
       0.0748962 0.058364462 0.12101793 0.067684606
0001b0 e9 92 85 3d d1 47 80 3d 5d 97 c6 bd 72 82 d4 3c
       0.065221615 0.06263698 -0.09696839 0.025941107
0001c0 5d 61 7b bd b2 59 7c bc b0 bd 22 be 9e 1a 90 bd
       -0.06137215 -0.015402244 -0.15892673 -0.07036327
0001d0 f4 5e 50 bb 90 64 8d bc 18 9d de 39 0f eb 98 3d
       -0.0031794878 -0.017259866 0.00042460184 0.07466709
0001e0 77 2a 3c bd 1c a0 37 bd df 15 d5 bd 29 b6 b8 bd
       -0.045938935 -0.044830427 -0.10404562 -0.09019119
0001f0 92 66 13 3e 57 13 c1 3d dc fd a3 3d dc b3 86 bd
       0.14394596 0.09427517 0.08007404 -0.06577274
000200 af 68 34 bd 91 7f 7a bd 0d 5a 08 bd 46 ce b1 bd
       -0.044045147 -0.061156813 -0.033289004 -0.08681922
000210 1e ed 8c 3d 9a a6 e2 3d 98 e5 1e bc 96 76 cd 3b
       0.06881164 0.11066933 -0.009698294 0.00627024
000220 3a 4f 45 3d f3 e5 0e be 12 aa 52 bd 33 a9 0d be
       0.04817126 -0.13954906 -0.051431723 -0.13834076
000230 89 6e 99 3d 04 88 9a 3d 92 e5 5e bd 55 67 12 3d
       0.07491786 0.07545474 -0.054418154 0.035743076
000240 af 90 0d be 48 d5 b3 ba 47 2b 7e bd c6 b1 85 3d
       -0.13824724 -0.0013720179 -0.06205299 0.06528048
000250 61 f5 2d 3e 71 35 02 be 97 be 0e bc 21 d8 67 bc
       0.16988136 -0.12715699 -0.008712432 -0.01415065
000260 9e 8c 26 3d a7 72 a0 bc 7e e3 e2 3d b2 ad fa 3d
       0.040661447 -0.01958592 0.11078547 0.12240161
000270 d7 37 7c bc 1f ed 03 bc 8a a6 89 bd e7 c5 8b 3d
       -0.015394173 -0.00805214 -0.06721218 0.06824856
000280 31 53 d7 3d 90 65 67 3c 79 e0 39 be de ef 02 be
       0.105139144 0.0141233355 -0.18152036 -0.12786815
000290 75 55 c3 3d 36 09 04 3e 71 af 91 bd dc 8e fa 3b
       0.09537784 0.12894139 -0.07113541 0.0076464247
0002a0 15 44 35 bd 08 bc a0 3c ce 42 8c bd f5 a5 d4 bd
       -0.04425438 0.01962091 -0.068486795 -0.10383216
0002b0 d8 5b 7c bc d8 e7 1c bd e6 71 33 3c 06 c2 97 bd
       -0.015402757 -0.03830704 0.0109524485 -0.07410054
0002c0 12 a0 09 3e 84 30 ca bc 11 96 4e bd 1f b7 c0 bc
       0.13439968 -0.024681337 -0.050436083 -0.023524819
0002d0 c5 ea 25 bc 90 a6 33 bd eb e4 1b be 58 52 11 3d
       -0.010126774 -0.04386002 -0.15224044 0.03547892
0002e0 9c fb 8e 3d 76 cc 8e 3d 7f 12 d0 3c 0b f3 d7 bd
       0.069815844 0.069725916 0.025399445 -0.10544404
0002f0 0f 57 cc 3b 07 ee e8 bd a7 13 6a bc 35 e8 10 3e
       0.006235964 -0.11373525 -0.014286912 0.1415108
000300 c2 4d 25 be 75 37 b5 3b 0f bb 67 3d cb ce 01 3d
       -0.16142944 0.0055302926 0.056574877 0.031691354
000310 c6 11 c8 bd a5 a7 0c 3b eb 1c ea bd ff 37 44 3d
       -0.09769015 0.0021462229 -0.11431297 0.047904965
000320 c5 de 47 3b 9b e0 80 bb fb 21 61 bd ac 6a c2 3d
       0.0030497771 -0.003933025 -0.054964047 0.09493002
000330 b4 b1 bb bd 66 30 12 bd 14 f2 04 3d 34 d5 84 3d
       -0.091647536 -0.035690688 0.032457426 0.06485978
000340 77 ce bd bd 94 3c 29 3a f8 4c 17 3d a8 6d 3a 3d
       -0.09267896 0.0006455865 0.036938637 0.045514733
000350 4c 91 1f 3d fb 03 88 bd 26 db 00 3d 4d fe bb bc
       0.038956925 -0.06641384 0.031458996 -0.022948408
000360 0b e2 dd bd b6 09 02 be a1 b0 6c 3c 89 f1 d2 3d
       -0.1083413 -0.12699017 0.0144464085 0.102999754
000370 99 ce 83 3d 5a 72 be 3c ea 7e 98 bd d6 80 1f be
       0.0643589 0.023247886 -0.07446082 -0.15576491
000380 8e 6a 9f bd cc 07 29 be 55 44 1e 3e 5c 7e 0b 3e
       -0.077839956 -0.1650688 0.15455754 0.13622421
000390 d5 d9 65 3c f9 35 19 be 02 b2 ac bd 6a 69 10 3d
       0.014028986 -0.14961995 -0.0843239 0.03525678
0003a0 46 d1 34 3e 79 7e cf bb 5c 37 78 bc 1f 05 4b bc
       0.17657956 -0.0063322154 -0.015149917 -0.012391358
0003b0 8f 0d d1 bd ef 95 ac bd 9c c1 9f 3d 14 46 c1 3d
       -0.10207664 -0.08427035 0.078006 0.094371945
0003c0 af 0c eb 3d 9f d5 99 3d 0d 8a 59 bd 72 a2 f3 3d
       0.114770286 0.07511448 -0.05311017 0.11896218
0003d0 a3 26 65 3d a9 bc 05 be 09 ba 49 bb f9 1b 02 bd
       0.05594505 -0.1306025 -0.0030781052 -0.031764958
0003e0 35 17 da 3c 54 6d 50 bd df 4c 3b 3d 05 d7 0d 3d
       0.026622394 -0.050885513 0.045727607 0.034628887
0003f0 be 9b a4 3d ba 82 d8 3d 69 23 bd 3c 37 d6 28 bc
       0.08037518 0.10571809 0.023088174 -0.010304979

lstm.weight_hh_l0 f4 [256, 64]
000000 fa 8d c1 bd 8b 8b 8f bd cd 44 b8 bd de 62 01 3e
       -0.09450908 -0.070090376 -0.08997498 0.12635371
000010 01 95 c4 bd 0e 09 c1 bd 50 3e cc 3d eb a2 35 bc
       -0.09598733 -0.09425555 0.09972823 -0.011086206
000020 4f 44 00 3d 1b 0b 01 3e de b3 5e 3b 12 d7 92 3d
       0.031315144 0.12601893 0.003398172 0.07169928
000030 f9 5a 3e 3d 09 f8 59 bd 42 90 fb bc d7 16 b3 3d
       0.046473477 -0.05321506 -0.030708436 0.08744591
000040 1d cf 81 3d 9d e8 ba 3a 8d 16 d3 3c 26 90 7e 3d
       0.06338332 0.0014259998 0.025767589 0.06214919
000050 ab 51 0f 3e 17 5c 66 3d b1 b8 d3 3d db 59 e4 3c
       0.13995998 0.056240167 0.103379615 0.027874878
000060 03 65 10 3c 74 ea be 3d 56 28 e6 3c 6b 96 0d 3e
       0.008813146 0.09322062 0.028095406 0.13826911
000070 65 38 cb 39 72 62 c9 3d 26 51 18 bd ee 4f ca bd
       0.00038761194 0.0983323 -0.037186764 -0.09878527
000080 21 bf 23 3d 43 8b 19 3e 50 e3 b1 3d c4 86 ca bc
       0.039977197 0.1499453 0.086859345 -0.024722464
000090 e2 dd 6c bc a6 68 1c 3d c8 ab 81 bd 85 ac 1a be
       -0.014457198 0.038185738 -0.06331593 -0.15104873
0000a0 ef 93 ba 3c cf 0c 04 be 80 db 85 bd 4b 0f 8d 3c
       0.022775618 -0.12895511 -0.06536007 0.017219206
0000b0 8e e0 4f 3c 71 8a 9c 3c e3 c7 37 be bf c9 dd bc
       0.012687815 0.019108983 -0.17947344 -0.02707374
0000c0 47 1c 80 3d ed 54 30 be 1d 07 e0 bc 11 83 b3 bb
       0.062553935 -0.17219897 -0.027347142 -0.005478271
0000d0 7c a4 28 bd 57 5c 16 bc 8e 07 b6 3d fe 08 88 3d
       -0.04117249 -0.009177289 0.0888816 0.0664234
0000e0 a4 3b 20 bd 9d 24 88 bd 2c fd 86 bc eb d2 ae 3a
       -0.039119378 -0.066476084 -0.016478144 0.0013338005
0000f0 11 c4 5a bc 9c c3 3c 3d 56 a2 83 bd 69 41 40 bd
       -0.01335241 0.046084985 -0.064274475 -0.04693738
000100 70 7c b8 bd 1f e4 88 3d ef 84 c7 ba 04 34 da 3d
       -0.090081096 0.06684136 -0.0015222112 0.106544524
000110 a1 85 f9 3d f6 1c 56 bd 77 54 85 bd 66 d6 89 bc
       0.12183691 -0.052273713 -0.06510251 -0.016825866
000120 60 af c1 bc de 41 c6 3c 11 73 05 bd 51 b1 c1 bd
       -0.023643196 0.02420133 -0.03258044 -0.094576485
000130 fa 03 24 3e 62 af b8 3d 33 01 fb bb f9 30 52 3c
       0.16017142 0.090178266 -0.007660055 0.012829059
000140 03 f0 64 bc fe 51 00 be b1 0b 06 bd 9b 46 cb bd
       -0.013973239 -0.12531278 -0.032725994 -0.09925576
000150 1a a5 13 be 24 22 25 be 43 96 03 bd 05 ba 08 be
       -0.1441845 -0.16126305 -0.032125723 -0.13352211
000160 ac 41 ba bd bc 26 e8 bd 4f 0e 91 bd d5 2e 94 bc
       -0.09094557 -0.11335513 -0.07082807 -0.018088738
000170 b1 82 18 bd 68 87 9c 3d 79 28 21 bd 26 39 0b bc
       -0.037234012 0.07643014 -0.03934524 -0.008497512
000180 b4 e6 38 3d 56 c6 97 3c b6 7e 5b 3a be 5f 39 3d
       0.04514189 0.018527191 0.00083730684 0.045257322
000190 b6 68 51 3d 0a 43 92 bd 47 5c 29 3d f3 5c ca bc
       0.05112525 -0.07141693 0.04134777 -0.024702525
0001a0 db 25 f3 bd 69 d3 0c bd df 2e 01 3e b5 74 06 3d
       -0.11872455 -0.034381304 0.12615536 0.032826144
0001b0 d9 2a 1e 3d f1 ea f3 3d 3e 36 94 bc 0b 9f 7b 3d
       0.03861508 0.11910046 -0.018092271 0.061430972
0001c0 1c 1b 41 3d ee 48 ae bd 5b 83 b0 bd 0d a5 24 be
       0.047144994 -0.08510004 -0.08618804 -0.16078587
0001d0 c7 5e ad bd e1 b5 a6 3b c3 fa 1e 3e 3d 6f 28 3e
       -0.08465343 0.0050875996 0.15525346 0.16448684
0001e0 e6 2f 36 3d a2 b9 dc bd f3 55 47 3c 28 c7 69 3d
       0.044479273 -0.10777594 0.012166488 0.057074696
0001f0 11 90 b7 bd 2c 77 8e 3d 36 1e 83 bc bc f2 0d 3e
       -0.08963025 0.06956324 -0.016005617 0.13862127
000200 61 ef fe 3d 32 d3 09 3d 79 02 02 3e 9b c8 47 bd
       0.12448002 0.033648677 0.12696256 -0.048775297
000210 53 82 83 bd f5 8a d0 bd e1 cb d5 3d 47 d8 5d 3d
       -0.06421342 -0.10182754 0.104392774 0.054161336
000220 93 dc 65 bd c1 af b1 bc 6a 28 d4 bd 2a 69 ba 3d
       -0.05611856 -0.021690251 -0.10359271 0.0910209
000230 8a e5 ab bd 60 04 42 bd 33 4e 10 bc a0 7c f0 3d
       -0.083933905 -0.047367454 -0.008807707 0.1174252
000240 a3 88 a8 3d 84 e0 af 3c 2d 30 96 bb a9 56 8c 3d
       0.082291864 0.021469362 -0.0045833797 0.068524666
000250 38 86 83 bd bf 72 6a bb 1c 34 99 bc 7d 28 bd bc
       -0.064220846 -0.003577396 -0.018701605 -0.023090595
000260 32 bd c6 bd fb b6 71 3c 01 87 9c 3d e3 3b b8 3d
       -0.09704055 0.014753099 0.076429375 0.089957975
000270 55 ed 92 bd 67 6a 54 3d 43 09 a5 3d 3c 28 ca 3c
       -0.07174174 0.051859286 0.08058407 0.024677388
000280 5c 95 94 3d f2 2c 61 bc a9 5a 54 3d b1 c3 5c bd
       0.072550505 -0.013743626 0.051844273 -0.053897563
000290 26 1b 84 bd 0c 46 1e bd 48 5f f7 bd 5d cc 1c bd
       -0.06450491 -0.03864102 -0.1207872 -0.038280834
0002a0 e5 7b a4 bd db ed 89 3c 2a a8 02 bd 6b 00 97 bd
       -0.080314435 0.016837051 -0.031898655 -0.073731266
0002b0 45 75 c8 3d ad fc 34 3d 75 98 96 3d 75 46 e6 bd
       0.097879924 0.044186283 0.073532976 -0.11243907
0002c0 53 08 d1 bd 1a 63 ea 3c 19 99 c1 3c 88 3d a6 bd
       -0.10206666 0.028611708 0.023632573 -0.08117205
0002d0 a4 5c 39 3d e9 1c 50 3c 18 18 64 3d 1a fc 56 3d
       0.045254365 0.012702205 0.05568704 0.052486517
0002e0 35 33 9d bd d9 20 2a 3d d8 6d a9 bc 3f 4d ad 3d
       -0.076757826 0.041535232 -0.02068226 0.08461999
0002f0 8c d7 c6 bd 58 c9 d4 bd b7 43 f6 bd 0e 5e 17 be
       -0.09709081 -0.10389966 -0.12024634 -0.14781973
000300 3e 58 a0 bd 08 ce 0e be 0e 81 6a 3b e8 67 da 3d
       -0.07829331 -0.13945782 0.003578249 0.1066435
000310 55 6a 59 3d 36 fc 0e 3e 7c 15 a3 3d 83 f3 af bd
       0.05307992 0.13963398 0.07963082 -0.08591368
000320 9a ba d4 3c e3 a9 18 3e 7a 5c 4c 3d 50 30 5a 3d
       0.025967885 0.14908557 0.04989288 0.05326873
000330 95 54 5b 3d ae ff 13 3d cd f3 b3 3d 46 5b 03 be
       0.05354746 0.036132507 0.08786736 -0.12827787
000340 a3 08 03 be f1 64 ce 3c b3 e3 d0 bd 53 1d 92 3d
       -0.12796263 0.025194617 -0.1019968 0.071344994
000350 bc 7f 94 3d d7 c3 e0 bb c4 bc 8f bb 2a 6d f1 3c
       0.07250926 -0.0068592834 -0.0043865163 0.029470999
000360 4a 51 93 bd 32 48 53 3d f7 34 2a 3d 77 bf a8 3d
       -0.07193239 0.051582523 0.041554417 0.08239644
000370 3f 20 21 be 51 6f 01 3e 6e 1b f5 3d a2 cf 2a 3d
       -0.15734957 0.1264012 0.119681224 0.04170192
000380 e8 00 04 3d b3 82 85 bd 3b 53 4f bd dc 19 41 3d
       0.032227427 -0.065190695 -0.050616484 0.047143802
000390 08 38 b1 bd 72 d1 62 bd f9 d2 59 bd 95 5c 66 bd
       -0.08653265 -0.055375524 -0.053179715 -0.056240637
0003a0 c4 e7 e1 3c fe f4 aa bc 8a c9 fb bd 3e b7 e7 bd
       0.027576335 -0.020868775 -0.122943 -0.113142475
0003b0 0c aa 3d 3d d5 29 3d bd e9 8f a5 bd 69 5a 43 3c
       0.046304747 -0.046182472 -0.08084089 0.011923411
0003c0 dd 4f 88 bd 1c 2f bd 3d a5 7b 11 bc 7f 86 c1 3d
       -0.06655858 0.09237501 -0.008879577 0.09449481
0003d0 7d 22 d6 3d b6 5b 1d 3e 89 14 90 bd 65 ae 0a 3e
       0.10455797 0.15367016 -0.07035167 0.13543089
0003e0 b7 03 e8 3d 8b 2b f2 3c c9 95 b4 3d 8b 6a 35 3b
       0.113288336 0.029561779 0.08817632 0.0027681913
0003f0 0d 4f 9c bd 90 6a 8c 3d 95 fc 4a bd 70 27 b1 bc
       -0.07632265 0.06856263 -0.049557287 -0.02162525

lstm.bias_ih_l0 f4 [256]
000000 52 e1 0c 3b 5a 88 aa 3d db 01 87 bb 56 bd b7 bd
       0.0021496606 0.08326788 -0.0041200942 -0.0897166
000010 79 3f 9b bd 29 2b f8 3d 12 66 42 3d 5a b3 13 3e
       -0.07580466 0.12117607 0.047460623 0.14423886
000020 0f 3c 88 3d be 60 b3 3d 7d 55 84 bd 32 73 f6 3d
       0.0665208 0.087586865 -0.06461618 0.120336905
000030 d8 25 b7 3d 3f 37 e5 3d 9f 60 b9 bd ed fd bd bd
       0.08942765 0.11192178 -0.09051632 -0.09276948
000040 da e5 3f bd dd 86 97 3d 19 a9 8f 3d 2c 7b d7 3d
       -0.046850063 0.0739877 0.07014675 0.1052154
000050 b2 c3 d5 3d 76 1f b3 3d d5 cb 98 bd e4 75 59 3e
       0.104377165 0.08746235 -0.07460753 0.21236378
000060 a0 7c 20 3c ed b2 4c 3d 29 fa cb 3d 6f 7c 2b 3c
       0.009795338 0.049975324 0.09959824 0.010466679
000070 d5 24 0b 3e 2b fa 27 bd 08 dc 99 bd 00 69 ec 3d
       0.13588269 -0.041010063 -0.07512671 0.11543465
000080 3d b5 33 bd 33 b1 85 3d f1 8a a8 bd ca 49 db 3c
       -0.043874014 0.06527939 -0.08229626 0.026768584
000090 e7 32 92 3d 25 e9 d7 bc 08 d5 02 3e 72 2c 5f 3d
       0.07138615 -0.02635629 0.12776577 0.054485746
0000a0 6d 19 d6 bd ab a0 e7 3d 25 c2 55 bd cd c3 1b 3c
       -0.10454068 0.11309942 -0.052187104 0.009507132
0000b0 a2 d0 65 3c e7 f2 20 bd 01 ce a4 3d 89 1b 1d 3e
       0.014026793 -0.03929415 0.080471046 0.15342535
0000c0 73 61 a9 3c 56 5a 62 3d 49 d1 bb 3b 45 28 d7 3d
       0.02067635 0.055261932 0.005731736 0.10505728
0000d0 3c 46 02 bd 94 66 6a 3d 7b b2 df 3b 1b 92 de bc
       -0.031805262 0.057226732 0.0068266965 -0.027169278
0000e0 a0 78 87 bd 77 f8 de 3d 3d fa 3c bd e8 79 ee 3d
       -0.06614804 0.10887235 -0.046137083 0.116443455
0000f0 0a ee ea 3b b9 3e fe 3c bd dd dd 3d 9d 31 e1 3d
       0.0071694897 0.031035768 0.10833309 0.10995791
000100 9e ac 39 3d 81 d1 f3 3d 2e 1e 49 ba c5 06 94 3d
       0.045330636 0.11905194 -0.00076720386 0.07227854
000110 cf a4 06 bd 1f d6 4c bb 6d bb 91 bb da 8e c7 3d
       -0.032872017 -0.0031255556 -0.0044473917 0.09744044
000120 de 92 c0 bc 25 c6 a3 bc 11 b2 de bd 6e b2 a4 3d
       -0.023507532 -0.019991944 -0.10873807 0.08041845
000130 30 c4 a5 bd 0e 12 8e bd 09 bc 97 3d ce d5 9c 3d
       -0.080940604 -0.069370374 0.07408912 0.076579675
000140 66 96 ae bd a9 2e 73 3c 34 3a ba 3d 33 c1 bf bd
       -0.0852478 0.014842668 0.090931326 -0.09363022
000150 74 a6 bb 3a b6 1d 98 3d c1 63 7a bd 49 be 01 3e
       0.0014316575 0.07427542 -0.06113029 0.12670244
000160 37 7b a8 3d f0 62 2c 3c 7a dc 11 3e 1b fd 88 3d
       0.08226626 0.010521635 0.14244261 0.06688901
000170 86 53 11 3d e0 07 1e 3d 69 63 66 3d 4f f4 e5 3c
       0.035480045 0.03858173 0.05624715 0.028070597
000180 a7 e1 e3 3c 87 2e 04 3d 4d 41 7c 3d ca 0c 04 3e
       0.02781756 0.032270934 0.061585713 0.12895504
000190 d1 82 af bc 15 e6 77 3d 8a 0a f6 3d b3 b9 25 3c
       -0.021424683 0.060522158 0.12013729 0.010115075
0001a0 3d bf df 3d 87 d9 47 3d 87 20 2d 3e 2e d1 a0 3c
       0.10925148 0.048791435 0.1690694 0.019630995
0001b0 c9 69 f8 3d e9 21 e6 bb 03 9e b0 bd 18 c9 51 3e
       0.12129552 -0.0070230854 -0.08623888 0.20486867
0001c0 62 62 15 3e 20 af 0e 3d 91 0c b2 3c 8a 68 0d 3e
       0.14588311 0.03483498 0.021734508 0.1380941
0001d0 6d 27 d8 3d 2a 12 68 3d 58 a7 1e 3e b9 62 dc 3d
       0.10554395 0.056657948 0.15493524 0.10761017
0001e0 e4 50 82 3d 88 2f 43 3c 35 e2 a1 3d 00 43 00 3d
       0.06363085 0.011913188 0.07904474 0.031313896
0001f0 2d 27 69 3d 95 b8 05 3e 00 da 1d bd 37 62 0f 3e
       0.056922127 0.13058694 -0.03853798 0.1400231
000200 56 1b de 3d d5 5d f6 bc ca 13 07 3e d7 4e 1b 3d
       0.10845058 -0.03007404 0.13191143 0.037916984
000210 26 bd e0 3d a3 61 ee 3d 09 71 d2 3d 81 4f 0d be
       0.10973577 0.116397165 0.10275466 -0.1379986
000220 df 2d 9d bd 7c d5 0b 3d bf ad 6f bc 29 6d b6 bd
       -0.07674765 0.03413914 -0.014628827 -0.089075394
000230 4d a4 42 bd a6 c7 89 3d 25 4b 9b 3d f4 ac db 3d
       -0.04751997 0.06727533 0.07582692 0.107263476
000240 95 a3 04 bd 6f 61 0e be 23 23 46 bd c0 e3 e1 bd
       -0.032382566 -0.13904355 -0.048373353 -0.11029768
000250 3f 2f cd bb 3e f8 d6 3c 72 20 01 3e 9a d3 b9 3d
       -0.0062617357 0.026241418 0.12610033 0.09073563
000260 19 94 01 be 7c 1a 52 bd 60 5b f1 bc 38 f6 d5 3d
       -0.12654151 -0.05129479 -0.029462516 0.10447353
000270 2d 5b f4 bd 47 51 af bd 8e a2 6d 3d a2 0f 37 3c
       -0.11931453 -0.08560424 0.058016352 0.011173161
000280 a5 c8 13 be ac fe 99 3d 73 fe 26 bd e3 0c f3 bd
       -0.14432009 0.07519278 -0.040770005 -0.11867692
000290 e2 49 83 bd 88 7b 38 bd 02 84 1a bd 9b bd fa 3d
       -0.064105764 -0.045039684 -0.03772355 0.122431956
0002a0 08 f2 8f bd f4 29 5f bd a5 9e 30 3c c6 e5 1d bd
       -0.07028586 -0.05448337 0.010780011 -0.038549207
0002b0 f4 a0 ba 3d 62 ea ed bc 81 f0 05 3e d9 de a4 bd
       0.091127306 -0.029042426 0.13080026 -0.08050317
0002c0 60 8e b0 bc ed 3e f5 3d c4 69 93 bd 6b ab f8 bd
       -0.021552265 0.11974893 -0.071979076 -0.121420704
0002d0 2b c3 87 bd bb 9d d2 bd 10 d1 37 3b 79 e6 fc 3d
       -0.06629022 -0.10283991 0.0028048195 0.12348647
0002e0 cc e3 da 3c 5c 50 a1 bd 1f 8c 08 3e 97 4e a8 bd
       0.02671995 -0.078766555 0.13334702 -0.08218115
0002f0 a3 1c ed bd 1f 89 f6 3d d2 78 0d 3d 93 2c b2 bd
       -0.11577728 0.120378725 0.03453905 -0.08699908
000300 79 0e a3 3c dd 60 0f bc 57 1b 14 3d 73 5c 56 bd
       0.019904362 -0.008751121 0.036158886 -0.05233426
000310 fb 76 17 3d 2c 71 0a bd 6d 03 9e 3d 48 f2 bf 3d
       0.036978703 -0.033799335 0.07715497 0.09372383
000320 06 d2 a5 3d 74 44 09 3e f8 b7 94 bd f6 33 ac 3d
       0.080966994 0.13405019 -0.07261652 0.08408348
000330 5a 52 45 bd 41 8c 9a bc 0c 02 fc bc be 9c 8e bd
       -0.04817424 -0.018865706 -0.030762695 -0.0696349
000340 b6 e0 04 3d 1d 71 8e 3d fc d5 4f 3d eb 3a 96 3d
       0.032440864 0.069551684 0.05074118 0.073354565
000350 0a f0 8a 3c a5 fc 67 3c b0 f2 fb 3d 08 d9 84 bc
       0.016960163 0.014159356 0.12302148 -0.01621677
000360 31 60 94 3d e7 e0 e8 3c 71 49 53 bd a8 56 82 3d
       0.072449096 0.028427554 -0.05158371 0.063641846
000370 6e fc ac bd 18 9e 11 3e 26 fd b1 bd 21 b1 9f bd
       -0.08446585 0.14220464 -0.08690862 -0.077974565
000380 cb a2 6e bd 90 b1 53 bd f4 a7 42 bd 1f 47 a4 bd
       -0.05826072 -0.05168301 -0.047523454 -0.08021378
000390 b7 6e 1a 3e 2c cd ad 3d f6 c6 e9 3d 0e 7f 0d 3e
       0.15081297 0.08486399 0.11414902 0.13817999
0003a0 04 83 ce bd 04 db e8 3d 7b a0 fb bb a2 fd 1d bd
       -0.10083583 0.11369899 -0.007679043 -0.03857196
0003b0 c4 55 df bc ad 27 91 bb da 3b a6 bd af e6 24 bd
       -0.027262576 -0.0044297785 -0.081168845 -0.04025906
0003c0 77 d0 2f 3d c9 f9 31 3d b0 2d 77 3d 59 7b e0 bc
       0.042923417 0.043451104 0.060346305 -0.027402567
0003d0 f5 43 e2 bd 5b 5b 10 3d 23 9b 15 3d 3b c2 0e 3d
       -0.11048118 0.035243373 0.036524903 0.0348532
0003e0 06 73 ba 3c 74 8e 41 bd db c3 00 3d 25 37 b9 3c
       0.022759926 -0.047254995 0.031436782 0.022609303
0003f0 e2 2d 98 bd be 52 26 bd 12 be 01 3e 35 09 35 bc
       -0.074306265 -0.040606253 0.12670162 -0.011049558

lstm.bias_hh_l0 f4 [256]
000000 da 85 d9 3d 98 32 d8 3d f1 e4 2d 3c f6 2f 98 bd
       0.10621233 0.10556525 0.010613666 -0.07431023
000010 9a 14 04 3e 37 26 d4 bd ff cc d5 3c bf cd 05 3d
       0.12898484 -0.103588514 0.026098726 0.032666918
000020 fa d5 01 3b e3 cb 7e bd 12 1a db bc 61 0e bb 3d
       0.0019811378 -0.06220616 -0.02674583 0.09133602
000030 ab 90 94 bc af 6d 08 3e 4e d6 52 3d be c8 51 3d
       -0.01813539 0.13323091 0.051473908 0.051216833
000040 c8 60 90 3d 0b f2 7c bd 33 bd a6 bc ee eb 0e bc
       0.070497096 -0.061754268 -0.02035389 -0.008723242
000050 c8 a1 8f 3d 7d ed 31 3d 42 38 86 bd ba 74 19 3e
       0.07013279 0.043439377 -0.06553699 0.14985934
000060 35 53 21 3e d4 74 db 3c fb b6 e7 3d 1e f0 2b 3d
       0.15754397 0.026789106 0.11314198 0.04197704
000070 8d 75 be bd 9b 25 09 3d 5e e2 50 bd d2 b5 d2 bc
       -0.09299765 0.03348313 -0.05099713 -0.025721464
000080 2d 49 01 3e 6d 34 09 3e cf 34 e9 3c 61 a8 9b 3d
       0.1262557 0.13398905 0.028467564 0.07600475
000090 ed a9 32 3e b9 83 4e 3c 53 c5 f3 3c b9 8c e2 bc
       0.17447634 0.012604647 0.029757177 -0.027654992
0000a0 6b e8 a6 bc ca 70 04 3e b3 63 1d 3e c5 13 e9 3d
       -0.020374497 0.1293365 0.15370063 0.11380724
0000b0 5c 49 c9 bd 90 27 f2 3d 39 84 94 bc ae bc c8 3d
       -0.09828445 0.11823952 -0.018129455 0.09801613
0000c0 3d 5c 49 bd 07 df 1e bd 8b 6b 7d bd 17 e1 c7 3d
       -0.04916023 -0.038786914 -0.06187014 0.09759729
0000d0 44 58 12 3d 0f 1b 24 3e 0f 27 3a bd 15 2b 39 3c
       0.035728708 0.16025947 -0.045447405 0.011301775
0000e0 05 60 35 3c 7d 79 84 3d 89 a9 0a bd 5d 48 db bd
       0.011070256 0.064684846 -0.033853088 -0.107071616
0000f0 d8 f4 8c 3d 7c fc a2 3d 45 6b cd 3d 13 0f 8b bc
       0.06882638 0.07958314 0.10030226 -0.016974961
000100 85 eb c3 3d 21 53 c1 3d cd 70 f7 bc 7b 1b a1 bd
       0.09566406 0.09439684 -0.030205155 -0.078665696
000110 85 76 3b 3c e1 27 79 3d 99 22 0d 3e 7f 29 47 bd
       0.0114418315 0.060829047 0.13782729 -0.048623558
000120 76 43 2b 3e 28 a4 13 3d db 9b d8 bd f2 47 ce bd
       0.16724953 0.036045223 -0.10576602 -0.10072316
000130 1e 0f 25 3e 02 51 89 bd 1c bb 0d 3e fd 5e 18 3e
       0.16119048 -0.06704904 0.13840908 0.14879985
000140 1d 8a 10 bd b2 f2 58 3d 14 9a bc 3c 2a 94 50 3c
       -0.035287965 0.052965827 0.023022689 0.012730638
000150 cf 9c 04 bc ca b8 8c 3d c8 d5 15 3e 2d 1d 92 3c
       -0.008094027 0.06871183 0.14632332 0.017836178
000160 bb 5f 2c 3e d6 32 bd 3d 07 2e 18 3e d5 05 19 3c
       0.16833393 0.09238212 0.14861308 0.009339769
000170 18 c2 ce 3d 1f 81 1a 3d 0c 94 aa 3d 50 81 8d 3c
       0.10095614 0.037720796 0.08329019 0.017273575
000180 f5 6b a1 3d ec 39 05 3e 1f d7 d3 3d 06 5c 1d 3d
       0.07881919 0.13010377 0.103437655 0.03841784
000190 10 55 0b bb 16 01 c7 bc 0e 7d da 3a fc 9e ab bd
       -0.0021260418 -0.02429251 0.0016669349 -0.08379933
0001a0 cb 42 d2 3d dc dc 06 3e b5 21 40 bd 9d b4 ca 3d
       0.10266646 0.13170189 -0.046907146 0.098977305
0001b0 5c 17 1e 3b 93 e8 2c bc 7d 0f 9b bd 20 72 2b 3e
       0.002412281 -0.010553497 -0.075713135 0.16742754
0001c0 c6 24 e9 3c fc 36 e0 3d 3a b2 c2 bd 5a 63 01 bd
       0.028459918 0.109479874 -0.0950665 -0.03158889
0001d0 4b 09 52 3c 8d 70 26 bd 0a c4 ba 3d 8a a4 27 bd
       0.012819598 -0.04063468 0.09119423 -0.0409284
0001e0 ae a8 c9 3d 4e 97 98 bc 8f 16 a6 3d 6a e4 fa 3d
       0.09846626 -0.018626835 0.081097715 0.12250598
0001f0 e0 09 c8 bc fb 78 b2 bc d0 07 9d 3d 0c 81 a5 3d
       -0.024418771 -0.021786204 0.07667506 0.08081254
000200 77 cf 03 be 5c 2d 93 3d 3c c4 28 3d fc 1e 07 bd
       -0.1287211 0.07186386 0.04120277 -0.032988533
000210 ce 0b 03 bd e3 54 95 3d f3 58 12 bc 82 4e 38 3d
       -0.03199368 0.072915815 -0.00893234 0.044996746
000220 a1 00 02 3e a1 f9 ad 3d 43 d2 52 bc 3c c8 ce 3c
       0.12695552 0.084948786 -0.012867513 0.025241964
000230 e4 84 f3 3d 47 4e db 3d af 03 94 bd 2e 03 a0 bd
       0.11890581 0.107082896 -0.07227265 -0.078131065
000240 2d 4e a3 3d a1 90 a9 3d 15 81 05 be 92 48 92 3d
       0.07973895 0.08279539 -0.13037522 0.07142748
000250 55 72 32 3d fb 25 98 bd 6a c3 ba bd cd 2d ec bc
       0.043566067 -0.07429119 -0.091193035 -0.028830433
000260 63 cd de bc f6 b5 08 be 54 57 04 3e 7b 9f 11 bd
       -0.027197545 -0.13350663 0.12923938 -0.035552483
000270 92 f2 02 be d3 f0 b9 3d 1d 52 b0 3d 22 24 de bc
       -0.12787846 0.09079137 0.08609412 -0.027116839
000280 17 18 bc bd a4 6a 90 bd 32 74 d5 3c 7b ba 82 bc
       -0.09184282 -0.0705159 0.026056383 -0.015958061
000290 58 d9 3d 3d 62 9a 20 bc a7 e2 ac ba 44 54 a5 3c
       0.046349853 -0.009802433 -0.0013190106 0.020181783
0002a0 c0 23 11 3b 63 fc 38 3d d5 76 ee 3d d7 d6 e7 3d
       0.0022146553 0.04516257 0.11643759 0.11320274
0002b0 b8 fe cb bd 18 cb 75 3d 8f 4a 21 3d 2f 2e a7 bd
       -0.09960693 0.06000814 0.039377745 -0.08163106
0002c0 f7 17 cf 3b 3c 82 c6 3c 1f 99 f6 bc 99 c0 f6 bd
       0.0063199955 0.024232022 -0.03010231 -0.12048454
0002d0 c8 f6 f8 3b 9b 8a 7e 3d cf 2d c9 3d 35 74 88 3d
       0.007597778 0.062143903 0.098231904 0.0666279
0002e0 d5 21 7a 3c f6 7c 67 3d 43 66 82 3d 2a 7e 31 3d
       0.015266855 0.056515656 0.06367161 0.04333321
0002f0 df cf b7 bd 4a d6 89 3d 65 75 7a bd 4c c4 43 bd
       -0.08975195 0.067303255 -0.061147112 -0.047794625
000300 9e e9 95 3d 09 ed 0c 3e 8c d2 d6 bd 81 77 ae 3d
       0.073199496 0.13762297 -0.104893774 0.08518887
000310 a1 12 22 3e 66 4d 32 bc 3d a2 b3 bd f3 06 82 3d
       0.15827419 -0.010882711 -0.08771179 0.06348982
000320 56 0f b8 3d 4e 8f b6 3d ac 4e 85 bd d5 39 f9 3d
       0.089873 0.08914052 -0.06509146 0.12169234
000330 fd c3 bd bc 51 39 83 3d 8c db cc 3c 97 1d 4d bd
       -0.023164744 0.064074166 0.025007032 -0.050077047
000340 8a e9 8d 3d 18 58 32 3e 09 bc 9a bc e5 aa 19 bd
       0.0692931 0.17416418 -0.01888849 -0.037516493
000350 a1 22 5a bc df ac f6 3d 9a 87 8a bc 86 0d eb 3d
       -0.01331392 0.12044691 -0.016910363 0.11477189
000360 fd 4a 09 3e 47 9e 24 bd 1b b1 e9 3d 90 1e 85 bc
       0.13407512 -0.040190008 0.11410733 -0.016249925
000370 40 27 df bd 8b 76 7f 3a 96 e7 c6 3d 95 78 25 bd
       -0.10896158 0.00097451423 0.0971214 -0.0403982
000380 a0 b5 59 b3 bd 8e d7 3d 11 b2 89 3d 8d 2d 29 bc
       -5.0689437e-08 0.10525272 0.067234166 -0.010325802
000390 a1 3a 4f bd 4c 44 f8 3d 4c 42 f7 3d fe ed d7 3d
       -0.050593022 0.121224016 0.12073192 0.1054344
0003a0 1d f4 7f bc 3a 35 f7 3d 43 5c f9 3d c3 72 ef 3c
       -0.015622166 0.12070699 0.12175801 0.029229527
0003b0 a9 cb 9a 3d fe f4 0c bd 9c 94 8e bd 81 36 92 3d
       0.07558376 -0.03441333 -0.06961939 0.07139302
0003c0 17 f1 6d bd e5 42 be 3c 71 53 01 3b 4f 0e 76 bd
       -0.05809125 0.023225257 0.0019733573 -0.06007224
0003d0 7c f4 95 bd e6 4e 99 3c 14 03 aa bc 23 99 05 3e
       -0.07322022 0.01871438 -0.02075342 0.13046698
0003e0 49 a0 0a bd fd 2b c0 3d 2f 37 65 bd c7 ab 8d 3a
       -0.033844266 0.0938339 -0.05596083 0.001080864
0003f0 6f 74 ea bc a7 c1 eb 3d 57 db d3 3d bb 39 81 bd
       -0.028619973 0.11511546 0.1034457 -0.06309839

lstm.weight_ih_l0_reverse f4 [256, 6]
000000 30 32 b8 3c 50 b0 59 3d 28 5a f5 3d 84 46 02 bd
       0.022484869 0.05314666 0.119800866 -0.03180553
000010 cd ca 25 be be cb af bd 80 c0 d4 3d ec 53 b8 3d
       -0.16190644 -0.085837826 0.10388279 0.09000382
000020 d8 1f b0 3d e5 56 dc 3d fb 31 5f bd 3d 50 ef 3b
       0.08599824 0.10758761 -0.054491024 0.0073032663
000030 cd f9 19 be ec 64 d8 bd 96 c7 15 3d fd f2 73 3d
       -0.15036698 -0.10566124 0.036567293 0.059557904
000040 2b da 96 3a d1 03 ca 3d 51 6e dd bc ff c7 06 3d
       0.0011509111 0.09864009 -0.027030142 0.032905575
000050 6a 0d d1 bc 21 41 df bd fb 21 c7 bc ef 2c 5f bd
       -0.025519092 -0.10901094 -0.024308195 -0.05448621
000060 c1 4c 84 bd 41 02 92 bd 89 27 eb bd ab a1 4c bd
       -0.06459952 -0.07129336 -0.1148215 -0.049958866
000070 83 92 f7 3d 79 97 f9 bc dc 73 d1 3d 0e c4 b6 3c
       0.12088492 -0.030467736 0.102271765 0.022310283
000080 13 c7 12 3d 3d c2 17 3d 79 bc 56 bd aa a7 13 be
       0.035834383 0.037050474 -0.052425835 -0.14419428
000090 09 8c 3d bd 71 d6 1a 3e 68 a7 8e 3d 8e f7 85 3d
       -0.046276126 0.15120865 0.06965524 0.06541358
0000a0 bd 31 1d bd 44 b2 a2 bb 97 2e be bb 9b 23 a8 bd
       -0.038377512 -0.0049650986 -0.005803894 -0.08209916
0000b0 47 89 89 3a 9a 79 af 3b 7b ae ae bd 41 de bb 3d
       0.0010493182 0.005355072 -0.08529373 0.09173251
0000c0 df 1a d2 3a d1 7d 83 3d cc 98 07 be 89 74 e3 bd
       0.0016029737 0.06420482 -0.13241881 -0.11106212
0000d0 de 75 8d 3d e3 21 ae bd 79 f0 19 bc 34 c9 b8 bc
       0.06907247 -0.08502557 -0.009395712 -0.022556879
0000e0 74 29 9c 3d ed f2 ca 3c 97 05 b5 3d 54 23 8a 3d
       0.07625094 0.02477404 0.08838957 0.067450196
0000f0 a8 ca 9c bd 47 07 b8 3c 36 3f fc bd 58 0b 22 bd
       -0.07655841 0.022464408 -0.12316744 -0.0395616
000100 85 f9 03 3e 07 26 07 3e 93 46 33 bd 92 bb a2 bd
       0.12888153 0.131981 -0.043768477 -0.079459324
000110 06 60 5c 3c 98 02 31 bd 16 2d b5 3d e3 d8 dd 3d
       0.013450628 -0.043215364 0.0884649 0.108323835
000120 b0 8c 2e 3d e2 bf 76 3d 04 35 21 be 75 37 72 3d
       0.04261464 0.060241587 -0.1574288 0.05913492
000130 5d 04 8c 3d 8f 42 1f bd 06 03 da bd f0 d5 bc 3c
       0.0683677 -0.038881835 -0.10645108 0.023051232
000140 58 92 81 bd fd f0 99 bd 42 77 84 bd e3 b3 e2 3d
       -0.06326741 -0.07516668 -0.06468059 0.11069467
000150 0c 04 d2 3d 14 be 0e 3c d1 1c 41 3e 6d af 6e 3d
       0.10254678 0.00871231 0.18858649 0.058272768
000160 2b 76 0b be 1c 96 8a 3d bc 5f c0 3d 08 7a ed 3c
       -0.13619296 0.06766912 0.0939326 0.028988853
000170 b6 7a 1a 3d af 87 ef bd 9b 71 e6 bd f5 3d 91 bd
       0.037714683 -0.116958015 -0.11252137 -0.070918955
000180 04 90 64 3d 2f 0e b6 3c 18 7c 19 bd bf 45 29 3d
       0.055801407 0.02222356 -0.03747186 0.04132628
000190 9b ac 22 3e 47 83 5b bd 36 f2 32 bd 16 66 a1 bd
       0.15886156 -0.053591993 -0.04368802 -0.078807995
0001a0 bf e9 1b bc 10 08 30 3d f4 9a dd b4 33 09 bb bd
       -0.009516179 0.04297644 -4.12772e-07 -0.09132614
0001b0 03 f6 1c 3c 86 8c 6f 3d a6 c8 c2 3d 72 ec 9a 3d
       0.009580138 0.058483623 0.09510927 0.075646296
0001c0 db 71 b3 bb 68 70 fe 3d e7 55 3c bd 4c 7b 30 bd
       -0.005476219 0.124237835 -0.04598036 -0.043086335
0001d0 1e 55 b3 3d 42 fd 73 3d b4 29 fc bc f1 62 d6 3d
       0.08756469 0.059567697 -0.030781604 0.1046809
0001e0 69 f3 91 3d de a3 26 be 24 4c 6a bd 9c 7f 60 3d
       0.07126505 -0.16273448 -0.05720152 0.054809198
0001f0 4c 2e 1e 3e 2f f9 d7 3d 60 82 07 be a6 04 53 3d
       0.15447348 0.10545575 -0.13233328 0.051518105
000200 52 24 94 3d 2c fd c0 bd b0 f8 07 3e ef a6 90 3c
       0.0723349 -0.09423289 0.1327846 0.017657725
000210 88 34 bb bd 41 33 16 be 18 6e 11 3c 52 ad cf bb
       -0.09140879 -0.1466799 0.008876346 -0.0063378
000220 a5 ce 84 3d 4a 52 f7 3d 44 2c 89 bd 8b d7 5d bd
       0.06484727 0.12076242 -0.06697896 -0.054160636
000230 41 0c 5e 3d ed a1 45 3d af 73 b3 bd ed 75 e4 bd
       0.054210905 0.048250128 -0.08762299 -0.11155305
000240 e6 f8 84 bc cd a8 0a bd 4d b0 dc 3d 96 21 05 be
       -0.016231965 -0.033852387 0.10775814 -0.13001093
000250 0b 81 05 be f4 09 06 be 23 69 1f bd 39 72 91 bc
       -0.13037507 -0.13089734 -0.038918626 -0.01775466
000260 40 b0 ae 3c 2e 60 7d 3d cd 20 85 bd 90 da ca 3c
       0.021324277 0.061859302 -0.06500397 0.024762422
000270 1b a8 c3 bd 81 1b e1 3c 8e d4 af 3d 96 5a b5 3d
       -0.09553548 0.027478935 0.085854635 0.088551685
000280 7f b9 ba 3d 95 43 b0 3d 1e e0 cb 3d d1 48 ea bb
       0.09117412 0.0860664 0.09954856 -0.0071497937
000290 88 35 1a 3e 05 f6 01 3e 51 f8 d6 3c 08 dd d2 bc
       0.15059483 0.12691505 0.026241453 -0.025740162
0002a0 b6 cf 01 3e 06 48 d3 3d 39 1a 00 3e 76 f0 02 3d
       0.12676892 0.10316472 0.12510003 0.031967603
0002b0 56 3f db bd ee fc 86 bc 41 dc d2 3d 75 44 c1 3d
       -0.1070544 -0.016478028 0.10295916 0.09436885
0002c0 86 95 89 3d 1f b3 78 bb a9 b3 bc 3b 35 81 91 3d
       0.067179725 -0.0037948561 0.005758722 0.071047224
0002d0 0e 13 d9 3d c1 20 e6 bc 95 6d 9a 3d e5 bd 02 bd
       0.105993375 -0.02809179 0.07540432 -0.03191938
0002e0 1c bc a5 3d 12 e6 ed bd 20 64 a4 bd fa c1 87 bd
       0.0809252 -0.11616148 -0.0802691 -0.06628795
0002f0 dc d5 a3 bd 45 8a b7 3d d1 c7 ab 3c 8f c5 66 3d
       -0.07999775 0.0896192 0.020969303 0.05634075
000300 30 d8 bc 3c 48 af 26 3d 56 91 f0 bd 33 52 98 3d
       0.023052305 0.040694505 -0.11746471 0.07437553
000310 49 78 43 bb 34 b6 75 bd 64 80 0a bd 17 8f 10 be
       -0.0029826334 -0.059988216 -0.03381385 -0.14117084
000320 7e 2f 0c be e2 b4 03 be 9e 14 56 bc 63 7d 50 bd
       -0.13689992 -0.1286197 -0.013066439 -0.050900828
000330 ee e3 ff 3d 3c 75 e2 bc e2 3a b2 3d f7 27 0b 3d
       0.12494646 -0.027643792 0.08702637 0.03397366
000340 66 b0 88 bd cc cb 35 bc 19 76 b7 bd 74 ca 01 be
       -0.0667427 -0.011095952 -0.08958072 -0.12674886
000350 c4 39 ad 3d 4c c9 24 bc 35 13 9b bd fa 58 c6 bd
       0.084582835 -0.010057759 -0.07572023 -0.0968494
000360 16 ed 4e be 74 3b d4 3d c8 e6 bd bd 80 f2 65 3d
       -0.20207629 0.10362902 -0.09272534 0.05613947
000370 d6 cb 60 3d 3d f0 1a 3e 8f e0 19 3d af f4 b7 bd
       0.054881893 0.15130706 0.03756767 -0.089822166
000380 e9 78 ff bd 68 45 15 3c 67 21 82 3d 77 85 d2 3d
       -0.12474234 0.009110786 0.06354027 0.10279363
000390 14 09 05 3c 3e 6b 27 3d 91 e1 2e bd de c6 0f be
       0.00811984 0.04087376 -0.042695586 -0.14040706
0003a0 ce 5b 39 3e 67 e0 ec 39 fd 5b cf 3b 72 4c 54 be
       0.18101427 0.0004518062 0.0063281045 -0.20732287
0003b0 5b 35 b2 3d 76 e8 ca 3d 21 35 64 bd d1 4f 3f bd
       0.08701583 0.0990762 -0.05571473 -0.04670698
0003c0 da bd 87 bd 2d 1e a6 bb 45 89 5d 3d f2 82 43 3d
       -0.06628008 -0.005069515 0.05408599 0.0477323
0003d0 00 19 32 3d 30 30 a7 3d ea 09 03 3e be 9f e7 3a
       0.043480873 0.08163488 0.1279675 0.0017671508
0003e0 8a 0c f2 bc 1d 7f eb bc 9a 75 3d 3c 19 a1 62 bd
       -0.029546995 -0.028747136 0.011563683 -0.055329416
0003f0 fe d8 ad bd c9 4b bd bd 9d a2 1d be d3 c9 61 bd
       -0.084886536 -0.092429705 -0.15394063 -0.055124115

lstm.weight_hh_l0_reverse f4 [256, 64]
000000 6f 2c db 3d 36 76 ab 3d f1 49 d6 3b c0 fb 0e 3e
       0.107018344 0.08372156 0.006539576 0.13963223
000010 22 c9 ca 3d 42 a7 cd bd 9f fa b4 3d ae e8 24 3d
       0.09901644 -0.100416675 0.08836865 0.040260963
000020 53 ba 15 3d 40 6f dd 3d 1e 40 f9 bd 2a 26 8d 3c
       0.036554646 0.10812235 -0.121704325 0.017230112
000030 c5 89 64 bd ea 65 16 3d e7 52 cf 3d 14 e1 cf 3d
       -0.05579545 0.036718287 0.10123234 0.10150352
000040 e4 9d 5f bd 7d 21 c8 3d cd 9b db 3d 4e a9 b0 bd
       -0.054593936 0.097720124 0.10723076 -0.08626042
000050 6f 4e 08 bd 0b 3d 30 bd 9e 2d f5 bc 90 13 16 3d
       -0.033277925 -0.043026965 -0.029928979 0.03663975
000060 86 ef 82 bd ae 57 91 3d e4 0d 9d bd bd c4 05 3e
       -0.06393342 0.07096802 -0.07668665 0.13063331
000070 49 63 c3 3d d4 60 65 bb e5 68 a6 3d b8 84 7c 3d
       0.095404215 -0.003500034 0.08125476 0.061650008
000080 a0 dc b3 bd 58 a2 3b bd cf 17 ab 3d 9b 18 9a bd
       -0.08782315 -0.04580912 0.083541505 -0.07524224
000090 3e 68 a0 3d 33 52 8d bd 23 56 ce 3c 46 f6 9a bd
       0.078323826 -0.06900444 0.025187558 -0.07566504
0000a0 40 b3 ef bd d5 89 f1 bd 8f 50 30 3c 1f f0 b9 3c
       -0.11704111 -0.117938675 0.010761394 0.022697506
0000b0 1d 1f e0 3d f0 30 ae bd 82 51 19 3d 1d b0 00 3e
       0.109434344 -0.08505428 0.037431248 0.12567182
0000c0 10 11 90 bd 48 68 80 3d 4b 8c b3 bd fa 19 fa 3d
       -0.070345044 0.0626989 -0.08766993 0.12211986
0000d0 c1 11 8e 3b f8 c2 01 be 52 56 08 3e 74 75 b1 bd
       0.0043356125 -0.12672031 0.13314179 -0.086649805
0000e0 79 e3 f1 bd 0a 09 98 bd 8b 83 93 3d c6 08 a9 3d
       -0.11810965 -0.07423599 0.07202824 0.082536265
0000f0 37 bb de 3d de 19 3d bd da 1d 76 bc 98 0e bd bd
       0.10875552 -0.046167247 -0.015021766 -0.09231299
000100 90 ec d1 3c 66 e3 e3 bc 03 77 9e 3d a1 6d df bb
       0.025625497 -0.027818393 0.077375434 -0.0068184887
000110 91 39 1b 3d d2 f9 1a bd 8c 77 60 bd e8 6b 22 be
       0.037896696 -0.037835903 -0.05480151 -0.15861475
000120 47 17 c5 3d be 7c 16 3e fb b5 b8 bc da e2 98 bd
       0.096235804 0.14696023 -0.022547713 -0.074651435
000130 a5 2a 19 3e b2 4d 29 bd 72 99 42 bd e8 8c ac bd
       0.14957674 -0.04133386 -0.047509618 -0.08425313
000140 3c 0a be bd 23 5f 5b 3d 38 94 1c 3c 06 13 da 3d
       -0.09279296 0.053557526 0.0095568225 0.1064816
000150 c1 5c 95 3c 21 ca 49 bc 97 8f 28 3d 2d 37 eb bd
       0.018232705 -0.012316258 0.041152563 -0.11485133
000160 25 91 e7 bb 4c 90 c7 bc 8f d7 90 3c 4d fb 12 bd
       -0.007066863 -0.024360798 0.017680911 -0.03588419
000170 d5 60 39 bd da 31 ae bc 3f 5a 1e be e3 c9 22 bd
       -0.04525836 -0.021264005 -0.15464114 -0.039743315
000180 59 e2 d9 bc ca 64 12 3e 44 f3 c8 3d da be c6 3d
       -0.026597189 0.1429626 0.09812024 0.09704371
000190 90 fe 4c 3d ca d4 d2 bd d8 11 85 bd 79 94 8d bd
       0.050047457 -0.102944925 -0.06497544 -0.069130845
0001a0 41 a6 bd bc 74 d3 91 bc 20 4a 47 bd 02 c3 79 bd
       -0.023150565 -0.017801024 -0.048654675 -0.06097699
0001b0 47 d4 2a 3e 48 14 cc bc ae 7a 0a bd 56 95 d2 3d
       0.1668254 -0.024912015 -0.033808403 0.1028239
0001c0 b9 7d e5 bd 21 b1 cd 3c db 2b a0 3c da 92 48 3d
       -0.1120562 0.025108876 0.019552162 0.048968174
0001d0 46 44 03 3d a6 82 80 bd e5 71 dc 3c ab 85 a7 bb
       0.032047532 -0.06274919 0.026909778 -0.00511237
0001e0 9f 88 32 bd cd 7c ad bd cb 55 d2 39 28 c8 b9 3c
       -0.043587323 -0.084710695 0.00040118242 0.02267845
0001f0 a4 b8 a2 bd 12 6a d5 bb 2a b9 22 3e 76 11 2e be
       -0.07945374 -0.0065128887 0.15890947 -0.16998848
000200 0a 2f df 3c 7e 8c cc bd 09 22 8a 3d df 0e c6 3d
       0.02724411 -0.09987734 0.06744773 0.09670805
000210 5a 61 f6 3c e1 9d 76 bd ab b5 28 3e 43 7c 7c 3d
       0.030075718 -0.06020916 0.16475551 0.061641943
000220 a4 f1 91 bd 09 6a 09 3e f2 17 55 bd 3f 25 df 3d
       -0.071261674 0.13419355 -0.05202479 0.10895776
000230 02 19 32 bd b5 ec 01 3e 3e dc bb 3c 56 31 e9 bd
       -0.04348088 0.12687953 0.022932168 -0.11386363
000240 61 37 f5 bd d3 39 a1 3d 9a 2e 1b bd 10 81 13 3e
       -0.11973453 0.07872357 -0.03788624 0.14404702
000250 73 41 9e 3d 3c c7 20 3c f3 d9 68 3d 33 cf 11 bd
       0.07727327 0.009813126 0.056848478 -0.03559799
000260 5c 41 c4 bd e2 6d af bd b1 02 59 bd 6d 9a a2 bd
       -0.09582779 -0.0856588 -0.052981082 -0.07939611
000270 17 0d 0f 3e be 2b 53 bd 60 4b 99 bd 9b 3c ad bc
       0.13969837 -0.051555388 -0.0748508 -0.021147063
000280 ae fc eb bb 1d ff 0d 3e 09 4a 3e bc 58 9b 7f 3d
       -0.0072017526 0.13866849 -0.011614331 0.062404007
000290 44 d9 3c bd 30 37 0e 3e 07 97 06 be 71 96 21 3e
       -0.04610564 0.1388824 -0.1314355 0.15780045
0002a0 a4 39 b9 3d ee 2a 0d be ce dd 2f 3e cc 4c b8 3d
       0.09044197 -0.13785908 0.17174456 0.08999023
0002b0 89 e2 ca bc 32 23 ff bd 5d b5 f6 3d 23 0a 36 3d
       -0.024766224 -0.12457885 0.12046311 0.04444326
0002c0 a9 71 36 be f2 7b ea 3d 6d df ed 3d 55 80 ce bc
       -0.17816795 0.11449422 0.11614881 -0.025207678
0002d0 1e 72 95 bd 1d 37 80 bd 84 d6 d5 bc fd b4 33 3e
       -0.07297157 -0.06260512 -0.026103266 0.1754951
0002e0 80 16 35 3d 20 13 74 bd 89 e5 1c 3e cc 13 5e 3d
       0.04421091 -0.05958855 0.15321936 0.0542181
0002f0 1f f5 05 be 99 ee f5 bc 35 4c 9f bd 79 89 00 3c
       -0.13081788 -0.030020999 -0.07778207 0.007845276
000300 e4 8e 46 bb ed df 00 3e b3 00 98 3d da cf dc bd
       -0.0030297572 0.12585421 0.07422008 -0.10781832
000310 35 65 81 3c 82 73 ad bd f4 0c 8f 3d 08 35 08 be
       0.01579533 -0.08469297 0.069848925 -0.1330148
000320 c0 c2 01 3d eb d9 a1 bd c8 2a ce bd df 4f ba bd
       0.03167987 -0.07902893 -0.100667536 -0.090972655
000330 58 f6 e2 3d 28 9a 0b 3d 17 ee 4c 3d b1 17 c5 3d
       0.110821426 0.03408256 0.050031748 0.096236594
000340 80 0e bc 3d f8 4c 8a 3d f1 b3 99 b9 12 1e a6 3a
       0.09182453 0.06752962 -0.000293165 0.0012673757
000350 fa 89 7b 3d 76 08 52 3c b1 17 00 be 82 92 0d bd
       0.06141088 0.0128194 -0.12509038 -0.03456355
000360 47 fe ab bd 4b e8 32 bd 92 67 19 3e 1d f1 c5 bc
       -0.08398109 -0.043678563 0.14980915 -0.024162823
000370 d6 15 12 bd 9d e6 e3 3c 6a e1 2a bc 92 67 07 be
       -0.035665356 0.027819926 -0.010429719 -0.13223103
000380 ca 84 56 3c 6a f3 92 3b 30 77 52 3d 83 d9 d4 3d
       0.013093183 0.0044845836 0.051383197 0.103930496
000390 de a1 f4 bd 81 ed 4a 3c f3 e1 ac 3d 7d 28 11 be
       -0.11944936 0.012385727 0.08441534 -0.14175601
0003a0 e4 0a 40 3d 95 1f 96 bd a6 b0 01 be 58 80 1a 3d
       0.046885386 -0.073302425 -0.12665042 0.037720054
0003b0 bc a1 53 bd 17 57 06 3e d0 79 8f 3d fd b6 39 3c
       -0.051667914 0.1311916 0.07005656 0.011335132
0003c0 bc 17 a9 3d b5 3e 22 be 4e 2b 3b 3d 07 74 8a 3d
       0.0825648 -0.15844233 0.045695595 0.06760412
0003d0 c5 4d ba bd 97 8b 29 be 3b 4f 4a bd d7 6a 0a 3c
       -0.090968646 -0.16557156 -0.049391966 0.008448324
0003e0 f4 95 ef bd bc f0 f1 bd 2e 42 12 3d 0a 7e ae bc
       -0.11698523 -0.118134946 0.035707645 -0.021300334
0003f0 c6 02 22 ba d9 d7 1b bc 9f 3f 11 3e 9b 97 39 bd
       -0.0006180223 -0.009511911 0.14184426 -0.045310598

lstm.bias_ih_l0_reverse f4 [256]
000000 3f 98 9f 3d b3 82 0b 3e eb 71 78 3d c7 a2 88 bd
       0.077927105 0.13624077 0.060655516 -0.06671672
000010 ff e2 b5 3c 1c ed 7d 3d 61 59 02 3d 18 e0 4f 3d
       0.022202967 0.061993703 0.03182352 0.05075082
000020 79 ee 91 3d 41 d2 4c 3d 3e c9 c6 3d 61 70 23 3d
       0.07125563 0.0500052 0.09706353 0.039902095
000030 a3 9c 08 3d 65 5b b6 3d 31 be 1e 3d 2d 96 2a 3d
       0.033352505 0.08904151 0.0387556 0.041647125
000040 9d c4 82 3d 2a a0 de 3d f3 b4 2e bd fb 40 16 bd
       0.06385157 0.108703926 -0.042653035 -0.036683064
000050 a9 63 a0 3a 02 86 f3 3d 18 c5 1e 3e 09 fe 0c 3d
       0.0012236732 0.11890794 0.15504873 0.034421954
000060 88 49 a0 3d 02 ff ba bd 1c 81 4d bc cc 2c 00 3e
       0.07826525 -0.0913067 -0.012542989 0.12517089
000070 36 e7 c1 bb 77 7b 8f 3d 72 48 2f bd 7e c2 02 3e
       -0.005917455 0.07005971 -0.0427937 0.12769505
000080 dd 21 d3 3d dd a0 a6 3d f4 27 7f 3d 93 bb ac 3c
       0.10309193 0.08136151 0.06229396 0.021085536
000090 dc 46 fc 3d a6 c2 8d bd 52 b9 d8 3d 71 a0 71 3d
       0.12318203 -0.06921892 0.10582222 0.0589909
0000a0 d1 47 73 3d 91 17 33 3d 01 55 ef 3d 35 98 99 3d
       0.05939466 0.043723647 0.11686135 0.07499734
0000b0 48 11 1f 3d 33 3f a5 bc 16 2b 59 3d 00 16 e2 3d
       0.03883484 -0.020171737 0.053019606 0.110393524
0000c0 84 51 aa 3c d3 b5 b6 bd 4c 5f 16 3e f0 18 2c 3d
       0.020790823 -0.08921399 0.1468479 0.04201597
0000d0 34 ff 1a bc 2d cb ab 3d be 56 9c bd 8d 06 1f 3e
       -0.009460259 0.08388362 -0.07633732 0.15529843
0000e0 a9 69 07 3d 5e 83 4a 3d a7 d2 30 bb e6 05 d2 3d
       0.03305975 0.049441688 -0.0026981027 0.10255031
0000f0 be ca 9d 3d 9a 0e e1 3d 16 b6 4b bc b7 88 da bc
       0.07704686 0.10989113 -0.012433549 -0.026676519
000100 71 9d 1c bc 4e 6d 5e 3d 7f 3e 88 3d 1c 09 86 3d
       -0.009559021 0.05430346 0.06652545 0.06544706
000110 aa 43 96 3c c0 fe 4e 3d 54 94 cb bd 36 bb 15 3e
       0.018342812 0.050535917 -0.09940401 0.14622197
000120 6c 8c 0b 3e f2 c7 92 3d 1e e0 1f bd cf 94 1c 3d
       0.13627785 0.07167043 -0.039032094 0.038227852
000130 47 f8 09 3e ec 3c cc bc cd e3 c0 3c 3f bc 0f 3e
       0.13473617 -0.024931394 0.023546124 0.14036654
000140 ce 26 a0 bd 06 6a c6 bc 62 4c d7 3d 57 f1 25 3a
       -0.078199014 -0.024220478 0.10512616 0.0006330213
000150 6b 69 ea bd ae a4 d3 bb 55 8f f5 3c c4 e2 ca bd
       -0.11445888 -0.0064588403 0.029975573 -0.09906533
000160 42 1e c4 bc 58 0d 06 3e a0 a3 62 bc 61 b3 0f 3e
       -0.02394021 0.13091028 -0.013832957 0.14033271
000170 3e ea 1b 3e 7b 96 1f 3d 26 8a 43 bd 22 df 0a bc
       0.15226075 0.03896187 -0.04773917 -0.008476051
000180 75 6e ff 3d 69 3d 1b ba 71 52 d7 3d 48 93 8e 3d
       0.1247224 -0.00059219316 0.10513771 0.069616854
000190 44 b1 f0 3d b9 19 53 bd 43 89 84 3d 7d 34 f7 3d
       0.11752561 -0.051538203 0.06471493 0.12070558
0001a0 27 4b 99 bc d7 48 d4 bd d9 86 72 bd e5 e7 2e bd
       -0.018712593 -0.103654556 -0.059210632 -0.04270162
0001b0 11 54 58 bb 79 48 c2 3d f9 06 83 3d 7f 04 ac bc
       -0.0033009092 0.09486479 0.06397814 -0.020998238
0001c0 b1 fc 47 3d 04 29 4b bc 2b a2 2c 3e 47 d9 b2 3c
       0.04882497 -0.012399916 0.16858737 0.021832122
0001d0 93 2a 04 3d 23 e2 0b 3e cd cc f1 3d 20 a6 33 bd
       0.032267164 0.13660483 0.11806641 -0.0438596
0001e0 78 f1 d0 bd b0 7c 9f bd 2e fe bc 3d 9f fe 71 bd
       -0.102023065 -0.07787454 0.092281684 -0.059080716
0001f0 80 06 39 3e da fb 04 3e 8c 86 04 3e 47 cb da 3c
       0.18068886 0.12986699 0.1294195 0.026708258
000200 8b 78 0c 3e 32 93 c4 3d 51 08 83 bd eb 4d b5 bc
       0.13717858 0.09598388 -0.063980706 -0.02213188
000210 5b 47 8d 3d 93 38 d0 bd fa 02 85 3c 6b 5c d6 bc
       0.068983756 -0.10167041 0.01623677 -0.026167115
000220 89 9c 4e 3c 7a 1b 9f 3d 6f 8d da bc 42 0e e3 bc
       0.012610563 0.077689126 -0.026678769 -0.02771676
000230 ed f7 e8 3d ca 34 a8 bc 9f 43 8e 3c ec 85 e8 bd
       0.11375413 -0.020532984 0.017366229 -0.113536686
000240 84 85 bd bb 1c 97 32 3d dd 68 f6 bb 30 7e 39 3c
       -0.0057837386 0.04360114 -0.007519825 0.011321589
000250 d1 5d f7 3c 26 13 97 3c e9 0c 77 bd f2 38 0a 3d
       0.030196102 0.018441748 -0.060315046 0.033745714
000260 1c 5c 01 be bb a9 77 bc 99 16 a6 bd 21 94 0f 3e
       -0.12632793 -0.0151161505 -0.08109779 0.1402135
000270 2e f5 e6 3d 1c dd b4 bd 81 03 88 bd 3e db c9 3c
       0.11277233 -0.08831236 -0.06641293 0.024640676
000280 85 43 fd bc b1 7a aa 3d cb 56 7d 3d 5e 8a b4 3d
       -0.030915985 0.08324183 0.06185035 0.08815454
000290 17 74 11 3d ac 2e fe bd ca 97 8b 3c 85 2e 88 3c
       0.035511103 -0.12411246 0.017040152 0.016623745
0002a0 dc ad c6 bd 5e fb 02 be 67 6f 76 bd 10 c7 12 3c
       -0.0970113 -0.12791201 -0.060164835 0.008958593
0002b0 fa ee 00 3e 8c 2a e5 3d ec 9d c6 3c 14 1c a5 bd
       0.12591162 0.11189756 0.024245225 -0.08061996
0002c0 cd 79 13 bd fa 6e c1 bd 27 b5 18 3d e9 24 5d 3d
       -0.03600483 -0.09444995 0.037282135 0.05399028
0002d0 38 4c cf bd 6e 38 8e bc fe b8 33 3d 37 a3 3b 3d
       -0.101219594 -0.017360892 0.043877594 0.04580995
0002e0 0b 7f 51 bd 52 fa 51 bd 9c 0d 80 bd 01 97 8c bd
       -0.05114655 -0.051264115 -0.06252596 -0.06864739
0002f0 46 c5 a1 bd 72 90 e4 3c 29 3b 2d bd 23 dd ec bd
       -0.07898955 0.027900908 -0.042292748 -0.11565616
000300 f2 1e 9a bd 6d c8 fa 3d 1a 15 ad b9 37 d8 d8 3d
       -0.075254336 0.122452594 -0.00033012853 0.10588115
000310 26 e7 82 3d 7a 24 ae bd c5 fb b0 3d 3e 0a 46 bd
       0.06391744 -0.08503051 0.08641771 -0.04834961
000320 63 c8 51 3d 87 07 43 bd 86 1d 9a bc 8c 63 7f 3d
       0.051216494 -0.0476146 -0.018812906 0.062350795
000330 66 1b b6 bb 3f 15 e7 3d 49 97 ed 3d 90 a6 91 bd
       -0.0055574654 0.11283349 0.11601121 -0.071118474
000340 50 a1 51 bd 64 96 b9 bd 21 fd 8f 3d ca 3e dd 3d
       -0.05117923 -0.09061888 0.070307024 0.10802992
000350 bc 06 f4 3d a5 bd 08 bd 44 c4 e9 3d 4d db eb 3c
       0.11915347 -0.033383984 0.11414388 0.028791094
000360 fd a8 b8 bb 78 5d d0 3d 2e dc f4 3d 1e fe d8 3c
       -0.0056353793 0.10174078 0.119560584 0.02648836
000370 ef 3d 6b bb c8 15 bc bb fd 6d 50 bd bc 05 9e bd
       -0.003589507 -0.005739901 -0.050886143 -0.077159375
000380 03 1e a1 3d e3 76 0e 3e 5e aa 11 3e 2b 74 54 3d
       0.078670524 0.13912539 0.14225146 0.0518686
000390 b7 35 36 bd f7 ec cc 3b 86 42 33 3d 5b a8 7e 3d
       -0.04448482 0.0062538343 0.043764614 0.062172275
0003a0 64 e3 14 3d 85 57 cb 3d a9 87 37 3e df 03 c7 3d
       0.03634967 0.099288024 0.17922844 0.09717535
0003b0 d6 44 24 3e 06 78 5b 3d ca 51 8c 3d d7 a5 d3 3b
       0.16041884 0.05358126 0.068515375 0.0064589786
0003c0 f1 34 f8 3d b6 79 e8 3d 34 7a 00 3e ef 10 ba 3c
       0.12119473 0.113513395 0.12546617 0.022713153
0003d0 95 18 84 3d 1a 9d 1c 3e 94 a4 b0 bd 9b b1 20 3e
       0.06450001 0.15294304 -0.08625141 0.15692751
0003e0 4e 71 38 bd 8e 17 ac bd 5a c6 eb bd 73 42 9b 3c
       -0.04502993 -0.0840293 -0.11512442 0.018952584
0003f0 55 65 1b 3e 80 62 e3 bc e7 5e fc 3d 58 2f c7 bd
       0.15175374 -0.02775693 0.12322789 -0.09725827
